model/model.pth (torch, 16787 bytes, 4 tensors)

linear1.weight f4 [256, 11]
00000000: 60d8 92bb aaf8 5e3e 87fc adbe 5cd8 d6be
00000010: 8bc3 cc3e 823c 22bf e12a 0b3e a2fe 33bf
00000020: 5971 c5bc dcd5 fdbe d937 9c3e fe02 ce3d
00000030: edb6 07be 851b 6b3d 05bd c0bc bee1 0ebe
00000040: b2c9 8fbc da1e aebe 87b0 b13c e852 88be
00000050: 35b0 903d a745 a4be 41dd 4fbe d322 5f3e
00000060: 4501 0fbe e184 aabe f89f 773e a21a 4abd
00000070: a007 e0be 6739 c43e 03d4 babd 558e 10bf
00000080: cd6a 04be 7121 193d 6388 893e 4e97 33bf
00000090: fcaf 593e b52d 8a3e 23fb 8abd e126 a9be
000000a0: 4ed7 1abf c849 d0be 1856 d33d 4cd7 293e
000000b0: 2168 9f3d cd4f 2b3e 9ff6 b3bd f489 85bc
000000c0: ccad 91bd 7e2d 86bb d1b0 c9bd 8016 fd3e
000000d0: 3a9b d03e 1b69 c53e eb3c f13e 6e69 ce3e
000000e0: 0bf9 de3e 6d6b 0bbf e3e7 b13d 8860 17be
000000f0: 0347 1a3d ebfe adbe 9b10 063e 9d49 2b3e
00000100: 274f c33d 32b2 a43e baa8 24bd 7880 03bf
00000110: 6923 5a3e 1b84 b83e e0c6 c63e c6b0 e5be
00000120: ac3c 8bbe 99a4 1fbf ba23 fbbe 1f5a a63e
00000130: 994f 8f3e 350e ac3e a154 fbbe bdc9 c33e
00000140: 9c58 53be e8e0 91bc e9e6 1ebd 2d6e 90be
00000150: ddfb 3bb9 ccad 283d 817f 41bd a759 843e
00000160: aabc d83d 8aec 35bf 16b7 463e 055d 913e
00000170: 172c 663e f285 a63d 63e8 c1be 3f22 08bf
00000180: 23af 0ebf 2df4 fb3d d22d 633e 2811 9c3e
00000190: 917e 0abf 070b bc3e d1a6 853c 0a6e 903b
000001a0: c36b 113e e361 f4bd 34b5 1a3e ce88 313d
000001b0: 3cc4 29bd 6df4 613e d294 c23e bc8d 183f
000001c0: 8bea dbbc f581 853d c57a 43bd b3e0 22bd
000001d0: e690 0f3d 1bad 0d3f 4f13 1a3f 7ae3 0c3f
000001e0: 858a 083f d4c9 b3be d734 253e cb79 03be
000001f0: 4c4b 993e b884 433e a16d 2abf e918 cebe
00000200: ea55 1d3e 576e 813e 4bb1 09bf 2304 cabe
00000210: a066 f43e 193b c73d e2f7 bc3e f10c 9f3e
00000220: 9cc5 4bbe ba56 ad3d ebe8 00be a18b b3be
00000230: d36a 9a3e 5f7f e83c 3015 55be 711b 45be
00000240: 264f 5f3e 4942 3d3e 5739 36be 4f22 babe
00000250: 5fce 13be 581d dabd 4055 ffbd f645 01bd
00000260: d1ef 933d 037a f7bc 289f 8b3e 45f6 1d3d
00000270: 066d 37bf e64e 073e 60d2 98be 9be4 adbe
00000280: 8476 d03e f7dc 1fbe ac65 cc3c 9a12 4b3e
00000290: dc74 d6be 4244 723e e822 91bb f01d f8be
000002a0: b6f5 8fbe bae4 c5be 7f59 d3be 034e aa3d
000002b0: 745e adbd e5bd fcbd 52c9 b63e 9616 e0be
000002c0: 8203 333e b0d9 633d 3aaa 83bf ece2 623e
000002d0: 453c 8dbe e145 103f 4922 48be ba52 cabd
000002e0: 3963 ec3e 20fc bbbe c13c c03e 88b0 09be
000002f0: 64db b93d a9de a43e 730f 04be e2a3 ecbb
00000300: f576 23be 5346 55be 3a5b 5bbd bdeb 06be
00000310: 1a6f dd3d 85e4 f93d a7d6 71be 8cf3 31be
00000320: db53 b63d 574e bcbe 10de 8f3d dabf 753e
00000330: fc2c 73be 74d5 b5be eff9 adbe 2fa0 e3be
00000340: ede9 543e 96e8 e8be e2a4 e63b a57f e0bd
00000350: 5636 2abe 6f07 963e 1e34 0fbf d54e 623e
00000360: d6ad 91bc d68f eabe 1876 d03e b494 f4be
00000370: b031 033d 188b 6d3d 1a28 b03e 814d d23d
00000380: 8167 cebe 8e3e 973e 9da1 81be 2bc6 86bd
00000390: 2e3d 083f 08dd 38be c3b5 9d3e 4b2b 603d
000003a0: 2ec4 a03e 805a a8be c174 b5bd aec6 e9bd
000003b0: a212 77bd 0c11 223c e61d 1c3e 6590 fc3d
000003c0: a6e7 8c3e 1271 ad3e 8575 0d3e 6ed0 bfbe
000003d0: 1f98 5bbc 32ae 6bbe 7f79 6b3e 7fc8 893e
000003e0: 4269 abbe aa3a 6abe 30f7 2dbe d90a 80be
000003f0: 406a f73e 9ff8 09bf bffe b93e 86b8 633e
-0.0044813603 0.21774545 -0.33981726 -0.41961944 0.39992937 -0.6337358 0.13590576 -0.70310414
-0.0241019 -0.49577224 0.30511358 0.100591645 -0.13253374 0.05739929 -0.023527632 -0.13953301
-0.01755223 -0.34007913 0.02169062 -0.26625752 0.07064859 -0.3208439 -0.20299245 0.21790628
-0.13965328 -0.33304504 0.24182117 -0.049341805 -0.43755817 0.38325045 -0.09122469 -0.5646718
-0.12931366 0.037385408 0.26861867 -0.7015275 0.21258539 0.26987997 -0.06786182 -0.33037475
-0.6048478 -0.4068129 0.103191555 0.16586035 0.07783533 0.1672966 -0.087872736 -0.016301133
-0.07113227 -0.0040947786 -0.09848178 0.4943123 0.40743428 0.38556752 0.4711679 0.4031481
0.4354938 -0.54460794 0.08686807 -0.14782917 0.03766538 -0.3398355 0.13092272 0.167273
0.095365815 0.32167202 -0.040199973 -0.513679 0.2130257 0.36038288 0.38823605 -0.4486143
-0.27194726 -0.6236053 -0.49050695 0.32490632 0.27990416 0.3360459 -0.49088004 0.38239852
-0.2063927 -0.017807439 -0.03879443 -0.28209057 -0.00017927536 0.04118137 -0.047240738 0.2584965
0.1058286 -0.71064055 0.19405779 0.2839128 0.22477756 0.08131017 -0.3787261 -0.53177255
-0.5573599 0.12302432 0.22185448 0.3048184 -0.54099375 0.36727163 0.016314896 0.004407649
0.14201264 -0.11932733 0.15108186 0.043343358 -0.04144691 0.22065897 0.38004166 0.5959127
-0.026845237 0.06518928 -0.047724504 -0.03976507 0.035050295 0.55342263 0.6018571 0.550346
0.53336364 -0.3511492 0.16133438 -0.12839429 0.2994026 0.19093597 -0.6657353 -0.4025338
0.15364805 0.25279495 -0.5378615 -0.3945628 0.47734547 0.09728069 0.3690787 0.3106456
-0.198996 0.084638074 -0.12588851 -0.35067466 0.30159625 0.028381048 -0.20808864 -0.1924875
0.21807536 0.18482317 -0.17795311 -0.363543 -0.14434193 -0.10650128 -0.12467432 -0.03156086
0.07223476 -0.030209547 0.27269864 0.03856494 -0.7165073 0.13213691 -0.29848003 -0.33963475
0.4071542 -0.15611635 0.024950825 0.19831315 -0.41886032 0.23658851 -0.00442921 -0.4846034
-0.2811715 -0.38651067 -0.41279218 0.08315661 -0.08465281 -0.12340907 0.3570047 -0.43767232
0.17481807 0.055627525 -1.0286324 0.22156876 -0.27585045 0.56356627 -0.19544329 -0.0987906
0.4616945 -0.36715794 0.37546352 -0.13446248 0.090750486 0.32201126 -0.12896518 -0.007221685
-0.15963347 -0.20827608 -0.053553797 -0.13175865 0.108122066 0.1220179 -0.2361704 -0.17378062
0.08902713 -0.3677852 0.07024777 0.23998967 -0.23747629 -0.35514414 -0.33979747 -0.44458148
0.2079236 -0.4548995 0.0070386985 -0.10961846 -0.1662229 0.29302546 -0.559389 0.22100385
-0.017783087 -0.45812863 0.40715098 -0.477697 0.032029808 0.05799398 0.34405595 0.10268689
-0.40313342 0.29539913 -0.25318614 -0.06580766 0.5321835 -0.18053067 0.30802736 0.054728787
0.31399673 -0.32881546 -0.0886016 -0.11414848 -0.060320504 0.00989176 0.1524578 0.123322286
0.27520484 0.33875328 0.13814361 -0.37463707 -0.013402968 -0.23015669 0.22995566 0.2691078
-0.33478743 -0.22873941 -0.16988826 -0.25008276 0.4832325 -0.5389499 0.36327168 0.22238359

linear1.bias f4 [256]
00000000: d687 b53e 574d c0be 103e 28be a0f2 273e
00000010: 888d bdbe 5a71 30be ec83 aebd 7443 85be
00000020: 4b0c fe3d bbf3 d5be d3d7 14bf 6c27 7b3e
00000030: 76a0 65be 1198 b1be ee80 9ebc d81f 09be
00000040: b93b 82be b60c 24be 0bbd afbd 0077 0a3e
00000050: b3b4 a9be 6945 2ebe 6dc3 73be 51ad e23e
00000060: c9aa 26be 65d1 013f 0dc8 5cbe 0c49 bd3d
00000070: bfce b7bc e95d e6bc 7ae0 893d 44a8 ad3c
00000080: 116c 043f ac15 11be 1ce0 db3d c31e 2abe
00000090: beff 73be 9ad2 533d 0953 85be 608f b8bd
000000a0: e67d 1bbe a999 25be accf dbbe 985d 35be
000000b0: aeb3 b5be c87d ae3d ace1 06bb 3a1d 5fbe
000000c0: 674c 44be 7527 58bd ae0e a9be f40e c7bd
000000d0: aa36 6fbe a9a5 bfbe c0cd 133e 9017 1bbe
000000e0: 6498 b6bc eee2 f4bd 696d b5bc c23b b6be
000000f0: c518 6fbe 7c75 a5be b24e 6fbe c328 4f3c
00000100: cbe1 2ebe 8047 83be 6a07 bcbd ad01 92bd
00000110: 5dbc ddbe c4c0 63bd 3e74 563c f660 4cbe
00000120: ea27 85be a03d 8fbd c0e5 88be 78e7 0cbe
00000130: 22f9 0f3e 8ae0 b3be fede 8f3d f599 81be
00000140: 24fc a5bd a4a0 1f3e e221 d4bc f8f9 8ebd
00000150: deb4 2e3e 57b9 163f 6b46 c8bd d44b 4a3e
00000160: 7512 d03f 96f5 89be d15e a8bd 6924 113e
00000170: 3e67 eebd 8d7a f93e bbfb 713c a325 78be
00000180: a74e c4be e2c8 80be cba0 803d 9080 343f
00000190: 170a f1be 5931 19be 49b8 193e 7c98 84be
000001a0: 7737 9ebe 8df2 e53d 4793 0ebe daf8 5bbe
000001b0: a35f 74be d687 983d 2c71 97be aee8 713e
000001c0: 42fb 8fbe ac40 943e 4c44 51be 9c4d bb3e
000001d0: 1533 263d 42c8 bcbd 2b13 9f3b 51fd 1e3e
000001e0: 67e6 07be 3f1a e93d 801f bcba 4309 333e
000001f0: 8529 b93d 892b 83be 8532 babe f5cc 8e3e
00000200: 6f85 073f 31b4 d8bd 000a 77be 510a 3abd
00000210: b67f 1b3c 26b4 8e3c 370a b13e 8a7c c4be
00000220: 3c58 48be 8012 e63d fe20 803b 1d50 93be
00000230: 26af 7c3e 1333 553c 6a06 4b3d 9f17 b9be
00000240: 48ae d3be ae84 c8be 0277 8abe 0ab9 bfbe
00000250: 4e7d b7be 7c05 dcbe 311e 043f 4aad aa3d
00000260: 6fc2 c33e 51bc 42be 211c b63d 6ca7 e0be
00000270: d3e6 82be 0963 9cbe 523f 0a3f fb60 72be
00000280: a73e 66be 2cd0 98be fd71 8cbe 2ffd 83be
00000290: 50a6 72bd 199f a9be 1748 a9be e5dd 82be
000002a0: f593 313d 5df3 703d 59f3 f6bd 0139 e6bc
000002b0: 58a4 60bb f5ea 633c 4202 ddbe 8d57 fabe
000002c0: 8be5 0ebe 41a4 4b3f 389a 983d 3abe 9dbe
000002d0: 7937 6d3c 6278 753d 3fd1 50be c55b 1cbd
000002e0: a5d0 55be 2959 29be 77db ed3d cda7 763d
000002f0: c8af 94be a195 02be e954 9b3c d9c7 663a
00000300: 4ecf 83be e59a 16be 5744 7cbe e6b9 c53e
00000310: 3524 7abe 8c65 edbd a488 863e b77a a4be
00000320: c60a 083e 7bd7 0c3e 5e1a d7be cae5 babd
00000330: 39b4 87be fa8f d2be 0a5e 96be 0432 a33e
00000340: 28b7 07be be39 7fbe 0990 b13e 158f 243e
00000350: e3e9 42be d01e 83be 0615 f2be 1910 a9be
00000360: 3f01 c1be d6a0 a4bb 7295 20bd 58a7 a93d
00000370: 2456 a0be 9f8c cebd 4012 133c 04b6 923c
00000380: 96e7 443d ec0e 3bbe 1386 97be 1813 b83c
00000390: 09d8 cd3d af8a abbe 865f 5d3d 12fe 6cbe
000003a0: 0572 e0bd cccc 86be 586b c0bd bed3 883d
000003b0: 2480 6b3e 55b3 15be bdf6 46bd cdb4 8ebe
000003c0: e6f9 4d3d e2ad 913e ee0e 803e c854 d2be
000003d0: 5e30 d9be ced7 1ebe a1ce 203f db7f 5d3d
000003e0: 36b5 9bbd 3e59 60be 20d3 b2be 6881 b1bd
000003f0: 7703 9fbe 50cd fdbd 3a03 01be 5479 173f
0.35455197 -0.37559006 -0.16429925 0.16401148 -0.37022042 -0.1723074 -0.08521256 -0.26028025
0.124046884 -0.41787514 -0.5814182 0.24526757 -0.22424492 -0.3468633 -0.019348588 -0.13391054
-0.2543619 -0.16020474 -0.08580979 0.13521957 -0.33145675 -0.17018665 -0.23805018 0.44272855
-0.16276087 0.50710136 -0.21560688 0.09242448 -0.022437451 -0.028120952 0.06732269 0.0211984
0.51727396 -0.14168423 0.10736105 -0.16613297 -0.23828027 0.051714517 -0.26039913 -0.090117216
-0.15184745 -0.16171898 -0.4293188 -0.17711484 -0.35488647 0.085200846 -0.0020581288 -0.21788493
-0.1916977 -0.052772004 -0.33019012 -0.09719649 -0.23360696 -0.37431076 0.14433956 -0.15145707
-0.022289462 -0.11957346 -0.022146897 -0.35592467 -0.23349293 -0.32316196 -0.23369864 0.012643996
-0.1707832 -0.25640488 -0.091811016 -0.07129226 -0.43307772 -0.055603758 0.013089238 -0.19958863
-0.26007015 -0.06994176 -0.26737785 -0.13760173 0.1405988 -0.35132247 0.07024954 -0.25312772
-0.08104733 0.15588623 -0.025895063 -0.069812715 0.17061183 0.58876556 -0.09779056 0.19755489
1.6255633 -0.2694518 -0.0822121 0.14174046 -0.11640786 0.4872631 0.01476949 -0.24233107
-0.38341257 -0.2515326 0.06280669 0.7050867 -0.4707801 -0.14960231 0.15011705 -0.25897586
-0.3090169 0.112279035 -0.1392337 -0.21481648 -0.23864608 0.07447784 -0.2957853 0.23623917
-0.28121382 0.2895559 -0.2043621 0.3658265 0.04057606 -0.09217884 0.00485458 0.1552632
-0.13271485 0.11381959 -0.001435265 0.17484002 0.09041122 -0.25619152 -0.36366668 0.27890745
0.5293798 -0.10581244 -0.24124908 -0.045419995 0.009490898 0.017419886 0.34578106 -0.38376266
-0.19564909 0.11233997 0.003910183 -0.2877206 0.24676189 0.013012665 0.049566664 -0.36150834
-0.41343904 -0.39163727 -0.2704392 -0.3744586 -0.35837787 -0.42972934 0.5160857 0.083338335
0.3823428 -0.1901715 0.08892084 -0.43877733 -0.2556673 -0.30544308 0.5400287 -0.23669808
-0.22484837 -0.29846323 -0.27430716 -0.257791 -0.05924064 -0.33129194 -0.33062813 -0.25559917
0.043353993 0.05882584 -0.12058134 -0.028103353 -0.0034277644 0.013910999 -0.43165785 -0.4889492
-0.13954751 0.79547507 0.0745129 -0.30809194 0.014478558 0.05992926 -0.20392321 -0.038173456
-0.20880373 -0.16537918 0.11614125 0.06021862 -0.2904036 -0.12752391 0.018961387 0.00088035833
-0.25744098 -0.14707525 -0.24635445 0.38618392 -0.24427874 -0.11591634 0.26276124 -0.32124874
0.1328536 0.13754074 -0.42012304 -0.0912586 -0.26504686 -0.4112547 -0.2936862 0.31874096
-0.13253462 -0.2492437 0.34680203 0.16070206 -0.19034533 -0.25609446 -0.47281665 -0.33020094
-0.37696263 -0.005024056 -0.039205022 0.082838714 -0.3131572 -0.10085415 0.008976519 0.017909057
0.04807242 -0.18267411 -0.29594478 0.022470042 0.10050971 -0.33504245 0.054046176 -0.23143795
-0.109592475 -0.26328123 -0.09395474 0.066810116 0.229981 -0.14619191 -0.04857515 -0.27872315
0.05028715 0.28452975 0.2501139 -0.41080308 -0.42419714 -0.1551201 0.6281529 0.05407701
-0.076029226 -0.21909043 -0.349267 -0.086672604 -0.3105733 -0.12392676 -0.12598887 0.5916951

linear2.weight f4 [3, 256]
00000000: 9da7 b93e cefd d9ba 2c33 9ebc 0e5f 9e3c
00000010: 111b 1ebe 83ae 31bd 7050 03be 86fd 4fbc
00000020: ae56 9d3d 936d a6bd 7841 babe 6061 a83e
00000030: 1d3b a8bd 93f4 3a3c d92c a8be d59b f3bd
00000040: b5b7 0abf 8239 963c 59e1 15be 4247 dabe
00000050: 76b6 2ebe 62a5 aabb 6d33 89be 9c20 3b3e
00000060: 48ef f6be 51a6 fc3e e933 b23c 6d94 be3e
00000070: 3534 c23e 9690 b33d 51b3 823d 95d5 a13c
00000080: a483 1c3f 89ea f5bc 7b43 f1bd 5462 17bd
00000090: 1fae 013d 6289 f73e e13d 143f 013d 30be
000000a0: 4508 5d3e 565f 2c3c 5e26 12bc c19c 07bd
000000b0: a3ef 1c3b 0509 043e eae6 8b3d f00d e6bd
000000c0: de5c c7be df18 31bd a3d4 6b3d 742b 01be
000000d0: 2d69 be3d 280d 183e f425 7c3d 25c5 9cbe
000000e0: 90b2 6bbd 6067 03bf b64b d73d 76ee dcbd
000000f0: ee96 3f3c 1982 cdbd 4624 393e 240c 013f
00000100: 024f 033f 51a2 0f3d e7af 943e 514c 843d
00000110: f67b 75bc f641 f2be f75e b43e 4bce 0ebc
00000120: 206f 593d 9865 5f3b 9ab4 293d 1c3e bebe
00000130: afb7 2d3e 6af2 ff3d 1f5d 693e 3965 f5ba
00000140: f024 11bd d2c5 103e 357d b5be 417f 5c3d
00000150: 9b21 2d3f 8dc9 a03e 96b1 c0bd 0831 de3e
00000160: 4834 f43e da8c ebbc 6ebc bcbe 2e30 a73e
00000170: 2e00 dcbd 30eb 8a3e a59e 1e3e c2a2 4bbc
00000180: f43c 8bbc 522d d4bb 71c9 633d 5084 5c3e
00000190: 77ae bb3c f884 74b9 2888 4f3e 6c2d 0ebd
000001a0: 107d 00be 6ce6 173d d52a 763b 510f b8bb
000001b0: d4a0 bfbe c18f 323e b0dd 9f3c fc43 373e
000001c0: 1735 84be dc8d 773e 2fd7 6ebf d1b9 823e
000001d0: 7067 efbb c94b 84bc 8890 e43d b2ea 3f3e
000001e0: a44a c7bc d07c 213d c591 5e3d f346 933e
000001f0: 33fb 493e 1601 353d 0258 19be 7bd0 2f3d
00000200: e9c3 8c3e 340c 3b3c 10cb f6bd b5da d63d
00000210: 5dc8 33be 77d9 b13e 48ed 893e 12d2 693d
00000220: db42 b4bb 7b4b e03e d726 f23d 5a4c 4fbd
00000230: 53dc fc3e 71ff a13e 348a 7a3e 0fbe 5fbe
00000240: ceac 3a3c 9782 debc f0f1 623c fd49 21be
00000250: 7020 71be 8e31 ccbd cae8 813e 8583 533e
00000260: 4d86 5a3e dde6 983e 91b3 d6be c180 483d
00000270: f5af f1bd 7fc0 da3b fe9c 023f 5046 acbb
00000280: 619a 17be 5bc0 62bd 593e 06bc 24d1 80bd
00000290: ddcd 113e 9e9d 13bc fca3 62be 4505 4fbe
000002a0: 88be 583e e6b4 7cbe 2231 47be c31c 093c
000002b0: 7a63 603d 5e5e b0bd 5b42 d2bc 0f03 e83e
000002c0: 1c1d babe d1e7 d93e 8e4b 883e 2163 873c
000002d0: 821c b1bd ec22 a4be 4291 10be 5e2b a53e
000002e0: b0cf b0bb 7d60 12bf 9406 bdbe 563b 8e3c
000002f0: 580b 4b3d 8525 f33b d884 b93e ee9a 493d
00000300: 20bd 993c d19d b0bd 1075 febc 85ba cc3e
00000310: 116e 9ebb 4bd5 b7bd fb0b 1d3e 6615 28be
00000320: 6266 0ebf f78a f73e e766 41be 1b9f 4f3e
00000330: 5669 a1bb 77b7 85be 3404 c33c 5688 a53e
00000340: 9108 a1bc 7daf 1b3f b7e0 f63e 79df a93e
00000350: 6ce9 50be 6eba 2fbd a75a 58be 99ca 5abd
00000360: bee0 babc ec2c a4be 3dd3 d9be 5554 0dbf
00000370: 84c7 943c 22f1 91bb 764f 013f 9fb7 3a3d
00000380: 6efc 133f a730 7ebe b1ad a6be 89f6 ebbe
00000390: dbbb 213e 3473 c93b fc39 be3d b642 2e3c
000003a0: 9d78 633e 0613 3bbd 5d31 8e3e 020e 8f3e
000003b0: 3d0f c83e 2f16 a7be 3b7c a9be 7f4e 603c
000003c0: 2fa2 c13e 0a8d 663e 93f6 8d3e c215 68bc
000003d0: 2725 44bd a12c 36bc 4875 c73e 81aa 62be
000003e0: d112 2b3c a198 c3bd 13e0 a7bd 00ea 34bf
000003f0: a577 e6be 93ab 563e 53ca 1cbf 8112 d13e
0.3626069 -0.0016631426 -0.01931151 0.019332435 -0.15440013 -0.043379318 -0.12823653 -0.012694722
0.076825485 -0.081263684 -0.36378074 0.3288679 -0.082144 0.01141085 -0.32846716 -0.11894957
-0.54186565 0.018337969 -0.14636745 -0.4263249 -0.17061791 -0.0052077034 -0.26797047 0.18274158
-0.48229432 0.4934564 0.021753268 0.37222615 0.37930456 0.08767812 0.06381858 0.019755164
0.6113837 -0.030019062 -0.11780449 -0.036959007 0.031660195 0.48347002 0.5790692 -0.17210771
0.21585186 0.010520777 -0.00892028 -0.033108477 0.0023946546 0.12894066 0.06831153 -0.11233127
-0.3893804 -0.04323661 0.057575833 -0.12614232 0.092974044 0.14848769 0.061559632 -0.3061916
-0.057543337 -0.5132961 0.105124876 -0.1078767 0.011693699 -0.1003458 0.18080243 0.5040915
0.5129243 0.035066906 0.29040453 0.06459869 -0.014983168 -0.4731595 0.35228702 -0.008716176
0.053084493 0.0034087654 0.041432 -0.3715676 0.16964601 0.12497409 0.22789429 -0.0018722183
-0.035435617 0.14137962 -0.35447088 0.053832296 0.676294 0.3140377 -0.09408872 0.43396783
0.47696137 -0.028753687 -0.3686251 0.32653946 -0.10742222 0.2713256 0.15490206 -0.012428941
-0.016996838 -0.006475129 0.05561203 0.21534848 0.02291034 -0.00023319188 0.20266783 -0.034711286
-0.12547708 0.03708498 0.003756215 -0.0056170602 -0.3742739 0.1743765 0.019514889 0.17897028
-0.25821754 0.24175209 -0.93297094 0.25532392 -0.007306032 -0.016149418 0.1116038 0.18741873
-0.024327584 0.03942567 0.054338235 0.28765067 0.19724731 0.04419049 -0.14974979 0.04292343
0.27493218 0.011416484 -0.1205045 0.10490934 -0.17556901 0.34736225 0.26938844 0.057085104
-0.005501134 0.43807587 0.11823814 -0.050609924 0.49386844 0.316402 0.24466783 -0.21849845
0.011393739 -0.02716188 0.013851628 -0.1575088 -0.2354753 -0.09970389 0.25372916 0.2065564
0.21340294 0.29863635 -0.41933873 0.048950914 -0.11801139 0.0066757794 0.510208 -0.0052574053
-0.14804985 -0.055359226 -0.008193576 -0.062898904 0.14238687 -0.009009747 -0.22132868 -0.20216854
0.21166432 -0.24678382 -0.19452336 0.008368674 0.05478237 -0.08611749 -0.025666406 0.45314834
-0.36350334 0.42559674 0.26620144 0.01652676 -0.086480156 -0.32057893 -0.14117911 0.3225965
-0.005395852 -0.5717848 -0.3691908 0.017362278 0.049571365 0.007420244 0.36234164 0.049220018
0.01876694 -0.08623851 -0.03106168 0.39986053 -0.0048348983 -0.08976229 0.15336601 -0.16414413
-0.55624974 0.4834821 -0.1888691 0.20275538 -0.004925887 -0.26116535 0.023805715 0.3233058
-0.019657405 0.6081465 0.4821832 0.3317831 -0.20401543 -0.042902403 -0.21128331 -0.05341587
-0.022812244 -0.32065523 -0.42543975 -0.55206805 0.018161543 -0.004453794 0.5051187 0.04558527
0.5780705 -0.24823247 -0.3255439 -0.4608653 0.15794317 0.0061477665 0.092884034 0.010636022
0.22213979 -0.04567244 0.27772036 0.27940375 0.39074126 -0.32634112 -0.33102593 0.01369059
0.3781905 0.2251474 0.27727184 -0.014165344 -0.047886994 -0.011119039 0.38956666 -0.22135355
0.010441498 -0.09550596 -0.08197036 -0.70669556 -0.45013157 0.20963888 -0.6124622 0.4083443

linear2.bias f4 [3]
00000000: 7d32 b63e 7e4f b0ba 6888 9d3d
0.35585395 -0.0013451425 0.07692033
